model/model.pth (torch, 17823 bytes, 4 tensors)

linear1.weight f4 [256, 12]
0	0xbcfa011d	-0.030518109
1	0x3bbbfb6f	0.0057367603
2	0x3e280f8f	0.16412185
3	0xbe5084dd	-0.20363183
4	0xbe60b22a	-0.21942964
5	0x3ebec75f	0.37261483
6	0x3eb75c41	0.35812572
7	0xbe52cdb1	-0.20586278
8	0x3eb1e07d	0.34741583
9	0xbe830e22	-0.2559672
10	0xbe9d2d8c	-0.30698812
11	0x3e95735e	0.2918958
12	0x3ce49f93	0.027908122
13	0xbd89c1aa	-0.067263916
14	0x3e611bb3	0.21983223
15	0xbdede970	-0.1161679
16	0xbe8818de	-0.26581472
17	0x3ec14a99	0.37752226
18	0x3d8213a1	0.063514
19	0xbf076e91	-0.52903086
20	0xbec62acd	-0.3870453
21	0x3ec45f91	0.3835416
22	0xbf03682c	-0.5133083
23	0xbdc53c69	-0.09630663
24	0xbe3917e6	-0.18075523
25	0x3e88da1d	0.26728907
26	0xbdff4791	-0.12464822
27	0xbec03ef2	-0.37548023
28	0xbd711d4a	-0.058865823
29	0xbe40da9a	-0.1883339
30	0xbd3d2d12	-0.04618556
31	0xbe711e0b	-0.23546617
32	0xbe59f264	-0.21283871
33	0xbd4869fc	-0.0489292
34	0x3d692183	0.056916725
35	0xbddab52e	-0.106790885
36	0xbf151c4c	-0.582463
37	0xbdab534f	-0.08365499
38	0x3e49082c	0.19632024
39	0x3c85d9d8	0.016339228
40	0x3d9f9b24	0.077932626
41	0xbe4502b5	-0.19239314
42	0x3e1ab4be	0.1510801
43	0xbd073280	-0.033007145
44	0xbdcc67fa	-0.099807695
45	0x3e5a62f4	0.2132681
46	0x3d385750	0.045005143
47	0x3e233c1d	0.159409
48	0x3e832bd8	0.25619388
49	0x3f046a9e	0.51725185
50	0x3ed4bdcc	0.41551054
51	0xbe251244	-0.16120249
52	0x3da6fdeb	0.081539
53	0xbda95f72	-0.08270158
54	0xbe50c47d	-0.20387454
55	0x3e5c0f10	0.21490121
56	0x3eed1828	0.46307492
57	0x3f0ac9b4	0.54214025
58	0x3f09edbf	0.53878397
59	0x3dc84702	0.09779169
60	0x3e047452	0.12934998
61	0x3eb2a743	0.34893236
62	0xbef822f3	-0.48464164
63	0xbe1a19db	-0.15048926
64	0xbed92f64	-0.4241897
65	0x3d192b24	0.037394658
66	0x3d7560db	0.05990682
67	0x3e0e0b76	0.1387156
68	0x3ed4535b	0.41469845
69	0x3bb9f68c	0.0056751426
70	0xbe3baeb9	-0.1832837
71	0xbe1caa37	-0.15299307
72	0xbd508867	-0.050911333
73	0xbd8f7cdd	-0.07006238
74	0x3e69515e	0.22784945
75	0xbdf65d39	-0.120294996
76	0x3ec47cf9	0.38376597
77	0xbe4ca546	-0.19984922
78	0xbeef2e46	-0.4671499
79	0x3dab1a44	0.08354619
80	0x3eeb5a7a	0.45967466
81	0xbe1fbff0	-0.15600562
82	0x3e8a864d	0.27055588
83	0xbe01c8be	-0.12674233
84	0x3a0741c4	0.0005159641
85	0x3cd99105	0.026558409
86	0x3e5155e3	0.2044292
87	0xbd371182	-0.04469443
88	0xbe609e44	-0.21935374
89	0xbe12ffa4	-0.14355332
90	0xbe3e7c70	-0.18602157
91	0xbe9a2741	-0.30108073
92	0xbdc36611	-0.09540952
93	0xbd9c6a81	-0.076375015
94	0xbe2bc5f1	-0.16774727
95	0x3d4168c3	0.04721905
96	0x3d1d8d7a	0.038465
97	0x3e75e323	0.24012427
98	0xbebfc770	-0.37456846
99	0xbcd2940e	-0.025705364
100	0xbe8bd848	-0.27313447
101	0x3e3f2a99	0.18668593
102	0xbc02667e	-0.007959006
103	0xbd9d8050	-0.07690489
104	0xbee76358	-0.4519298
105	0xbe5b8e54	-0.21441013
106	0xbda2bc9f	-0.07946133
107	0x3e9049d1	0.28181317
108	0xbece573d	-0.40300933
109	0x3ddc48d5	0.10756079
110	0x3e811913	0.25214443
111	0xbe133071	-0.14373948
112	0xbd10a3cd	-0.035312463
113	0x3e396728	0.18105757
114	0xbe563800	-0.209198
115	0xbe6364d0	-0.22206426
116	0x3eb6cd37	0.35703442
117	0x3e9fbee3	0.31200323
118	0x3e0d19ad	0.13779326
119	0x3e2c591c	0.16830868
120	0xbeb56169	-0.3542588
121	0x3ec143ac	0.37746942
122	0xbe34418f	-0.17603134
123	0x3e61fb0a	0.2206842
124	0xbbc819a1	-0.006106571
125	0xbeab66ff	-0.33477017
126	0xbd35e8c2	-0.04441143
127	0x3dba614e	0.09100591
128	0xbe3c68f2	-0.18399408
129	0xbea3801b	-0.31933674
130	0xbe63f0bb	-0.222598
131	0x3e73a4ab	0.23793285
132	0xbd3f384c	-0.04668455
133	0xbdc71b34	-0.097219855
134	0x3c752407	0.014962203
135	0xbdec99ca	-0.115527704
136	0xbe89c885	-0.26910797
137	0x3df547d2	0.11976589
138	0x3a292200	0.0006451905
139	0xbd1ef32c	-0.038806126
140	0xbe11d437	-0.1424111
141	0xbdb9e99e	-0.09077762
142	0x3d1de227	0.038545754
143	0x3d82dbf7	0.06389611
144	0xbd087c3f	-0.033321615
145	0x3e338bf9	0.17533864
146	0xbe3a5aca	-0.18198696
147	0x3d9f12fb	0.07767292
148	0xbda430f4	-0.080171496
149	0x3e4d2df0	0.20037055
150	0xbe174e45	-0.14775951
151	0xbdbfd29d	-0.09366343
152	0xbf1183cc	-0.5684173
153	0xbebe3c8c	-0.3715557
154	0x3e24dfef	0.16101049
155	0xbeda040f	-0.4258122
156	0x3ee4b35a	0.44668084
157	0x3f2fc1ee	0.6865529
158	0xbf26dde4	-0.6518233
159	0x3e055c53	0.130235
160	0xbcedf8bb	-0.029049268
161	0x3e720d37	0.23637854
162	0x3d895159	0.06704969
163	0x3dff2343	0.124578975
164	0x3e5cfacb	0.21580045
165	0x3e1fb327	0.15595685
166	0x3d90aa6c	0.070637554
167	0x3dc039e0	0.09386039
168	0x3dc2ca84	0.09511283
169	0xbd5ad338	-0.05342409
170	0xbd804327	-0.06262808
171	0x3ce22b4d	0.027608538
172	0x3ec55eb9	0.3854883
173	0x3e316f23	0.17327552
174	0xbe819ba2	-0.2531405
175	0xbf05ecc7	-0.5231442
176	0xbee67af7	-0.4501569
177	0xbe7a71eb	-0.24457519
178	0x3e8138db	0.2523869
179	0x3eded44b	0.43521342
180	0x3ea93c53	0.33053836
181	0xbf09b10a	-0.53785765
182	0x3ec6e157	0.38843796
183	0xbad4e9b8	-0.001624397
184	0xbe1a3e98	-0.1506294
185	0xbcbeec86	-0.023306143
186	0x3e54f086	0.20794877
187	0xbe0321bd	-0.12805839
188	0x3de5cc00	0.112205505
189	0x3e70e341	0.2352419
190	0x3cb74372	0.022371028
191	0x3ed1f67e	0.4100837
192	0x3e1afb60	0.15134954
193	0x3eb4538c	0.3521999
194	0x3e7a0475	0.24415763
195	0xbd5aa7fb	-0.053382855
196	0x3bd194de	0.00639592
197	0xbedcf471	-0.43155244
198	0x3e761c3c	0.24034208
199	0x3d72c96c	0.059274122
200	0x3e56038f	0.20899795
201	0x3f344ee9	0.7043291
202	0x3c8e953b	0.017405143
203	0x3e1c5357	0.15266167
204	0x3ebf39e5	0.37348858
205	0x3e7547bb	0.23953144
206	0x3e423526	0.18965587
207	0xbe41a3e9	-0.18910183
208	0xbd1f1915	-0.03884228
209	0x3e167c2b	0.14695804
210	0x3e154e6c	0.14580697
211	0xbd85e8fc	-0.06538579
212	0x3f171574	0.5901711
213	0x3ee82336	0.45339364
214	0x3d9f1b16	0.07768838
215	0x3e0595ef	0.13045476
216	0x3e7cba06	0.24680337
217	0x3ece1b49	0.40255192
218	0x3ee5ad05	0.44858566
219	0xbea6b645	-0.32560936
220	0xbc7ed319	-0.015553259
221	0x3dcbfa1a	0.099598125
222	0xbe434731	-0.19070126
223	0x3d9e8c07	0.07741552
224	0x3e5ea1ef	0.2174146
225	0x3e36b434	0.1784218
226	0x3e790c60	0.24321127
227	0x3e999d88	0.30003
228	0xbf405310	-0.75126743
229	0x3f072679	0.5279308
230	0x3eb87d07	0.36032888
231	0x3ec6bead	0.3881735
232	0x3e560623	0.20900778
233	0x3d360f6d	0.044448305
234	0xbe71ea5d	-0.23624559
235	0x3cac5aa2	0.02103931
236	0xbe3089f9	-0.17240132
237	0xbdf785d7	-0.12086075
238	0xbe224063	-0.15844874
239	0x3d83a6f5	0.06428329
240	0xbeaa75d0	-0.3329301
241	0x3e6906af	0.22756456
242	0x3e39efdc	0.18157905
243	0x3df40fdc	0.119170874
244	0xbed41e06	-0.41429156
245	0xbe8bc27d	-0.2729682
246	0x3e62daa7	0.22153722
247	0x3ea1e590	0.31620455
248	0xbf1fb62c	-0.6238735
249	0xbeeda7df	-0.46417138
250	0x3e54101d	0.20709272
251	0x3eb80dd8	0.35948062
252	0x3e93008d	0.28711358
253	0xbd76896d	-0.060189653
254	0xbdbd2de1	-0.09237266
255	0x3e33b051	0.17547728

linear1.bias f4 [256]
0	0x3d13fdf5	0.036130864
1	0x3e354952	0.1770375
2	0x3d83eee5	0.0644205
3	0xbb804b78	-0.0039152466
4	0xbe9630a0	-0.29333973
5	0xbb9e0e17	-0.004823457
6	0xbdd833b6	-0.10556738
7	0xbdcdcacc	-0.10048446
8	0xbe947e95	-0.29002824
9	0x3be5cd24	0.00701298
10	0xbe616508	-0.22011197
11	0xbe73d35d	-0.23811097
12	0xbde1398d	-0.10997305
13	0xbe533a91	-0.2062781
14	0x3cb66837	0.02226649
15	0xbea066a6	-0.31328315
16	0xbe91de77	-0.2849004
17	0xbdc01b80	-0.09380245
18	0xbca87a6a	-0.020566184
19	0x3ecdea51	0.40217832
20	0xbe024385	-0.12721069
21	0xbda835fc	-0.08213422
22	0x3e6ae519	0.22938956
23	0xbe098ba7	-0.1343218
24	0x3e542bd9	0.20719852
25	0xbe1c269f	-0.15249108
26	0x3d861d61	0.06548572
27	0xbc3b0a87	-0.011416084
28	0xbe36be52	-0.17846039
29	0xbe15861c	-0.1460194
30	0x3ac5f64f	0.0015103313
31	0xbbe7388e	-0.0070563024
32	0xbd9755b9	-0.07389397
33	0xbe78f81c	-0.24313396
34	0xbd002e7e	-0.03129434
35	0xbe105f2f	-0.1409881
36	0xbe45faa6	-0.19333896
37	0x3d8ae0e5	0.067811765
38	0xbd746aea	-0.059672274
39	0xbdca4911	-0.098772176
40	0xbe9b0749	-0.30278996
41	0xbec1d3fb	-0.3785704
42	0xbe755914	-0.23959762
43	0xbe966292	-0.29372078
44	0xbeba661b	-0.36406025
45	0xbe59980e	-0.2124941
46	0x3e79598a	0.24350563
47	0xbe6eb5f4	-0.23311597
48	0x3d141269	0.03615037
49	0xbc9efec0	-0.019408584
50	0xbe0b6a4e	-0.13614771
51	0xbebbd785	-0.36687866
52	0x3e898a70	0.26863432
53	0x3d4d3a27	0.050104287
54	0xbc74bfb9	-0.014938288
55	0xbce530c2	-0.027977351
56	0x3eca95c2	0.3956738
57	0xbde5c332	-0.11218871
58	0x3daac283	0.083378814
59	0xbdc4942a	-0.095985726
60	0x3ee73c84	0.45163357
61	0xbe85c089	-0.26123455
62	0xbeb81a14	-0.35957396
63	0x3dd46968	0.10371667
64	0xbe079ca2	-0.13243344
65	0x3e528a1b	0.20560496
66	0xbd3be93d	-0.04587673
67	0x3c8b6ee3	0.017020648
68	0xbe3cfd9f	-0.18456124
69	0xbe11b81c	-0.14230388
70	0xbd949209	-0.072544165
71	0xbe59f2d7	-0.21284042
72	0xbe87703d	-0.2645282
73	0xbe90813c	-0.28223598
74	0xbe9f99dc	-0.31172073
75	0xbe53924c	-0.20661277
76	0xbe39ef78	-0.18157756
77	0xbe1a81bf	-0.15088557
78	0xbec46559	-0.38358572
79	0x3dd4514b	0.10367068
80	0xbbd4407f	-0.006477415
81	0x3e95ebcf	0.2928147
82	0xbe454ac9	-0.1926681
83	0xbea643f8	-0.3247373
84	0xbd9d2a87	-0.07674127
85	0xbdb436dc	-0.08799526
86	0xbe9525df	-0.29130456
87	0xbe8816df	-0.2657995
88	0x3d59e5b1	0.053197566
89	0xbdbdb2ed	-0.09262643
90	0xbcff27d3	-0.03114692
91	0xbeb844c7	-0.35989973
92	0xbd9c76f1	-0.07639874
93	0xbe957130	-0.29187918
94	0x3a38e314	0.000705288
95	0xbdb42bff	-0.08797454
96	0xbebd0aba	-0.36922246
97	0xbdd0a312	-0.10187353
98	0xbe5c1c19	-0.21495093
99	0xbc3df38f	-0.011593713
100	0x3ed1bcde	0.40964407
101	0xbe354f22	-0.17705968
102	0x3e278250	0.16358304
103	0x3d313327	0.043261673
104	0x3e4a3c4b	0.19749562
105	0x3e3c1307	0.18366633
106	0xbdee1c17	-0.116264515
107	0x3c0a9f49	0.008460828
108	0xbcbc0827	-0.022953106
109	0xbca764a8	-0.020433739
110	0x3ee81b41	0.45333293
111	0xbd7ce13a	-0.06173823
112	0xbd8f2b1b	-0.069906436
113	0xbb0e9072	-0.0021753577
114	0x3eb31362	0.34975725
115	0x3ddeda7d	0.10881517
116	0xbd92f1f4	-0.07175055
117	0xbcf2e64a	-0.029650826
118	0x3e82550d	0.25455514
119	0xbe23b423	-0.15986685
120	0xbd8c2843	-0.06843617
121	0xbe20e192	-0.15711048
122	0xbcb13873	-0.021633362
123	0xbe360854	-0.17776614
124	0xbeafaffb	-0.3431395
125	0xbe998124	-0.2998134
126	0x3d504ca9	0.05085436
127	0x3e1e8741	0.15481283
128	0x3e961c94	0.29318678
129	0xbe8be2da	-0.27321512
130	0xbe8b6062	-0.27221972
131	0xbda445ba	-0.08021112
132	0xbeae8fea	-0.34094173
133	0x3e15ce3f	0.14629458
134	0x3e707448	0.23481858
135	0xbe7bc725	-0.24587686
136	0x3e0ef12c	0.13959187
137	0xbe8904e2	-0.26761538
138	0x3e9a6ae4	0.30159676
139	0xbe829f84	-0.25512326
140	0x3e2eaf38	0.17059028
141	0xbe826ef7	-0.25475284
142	0x3a7f337a	0.00097351486
143	0x3c62db6e	0.013846261
144	0xbe513043	-0.20428567
145	0x3e00990c	0.12558383
146	0xbe191a2b	-0.14951389
147	0x3de85cab	0.113458
148	0x3d863240	0.06552553
149	0x3dc136b7	0.09434264
150	0xbce13a20	-0.027493536
151	0xbc82049d	-0.01587134
152	0x3e8fbcbf	0.2807369
153	0x3e02c52d	0.12770529
154	0x3db58005	0.088623084
155	0xbd3b6094	-0.0457464
156	0xbdbb285a	-0.09138556
157	0x3e825adc	0.25459945
158	0xbe3b6d5c	-0.18303436
159	0x3ef62a8b	0.48079333
160	0x3d9fe577	0.07807439
161	0x3d335212	0.04377944
162	0xbd47c644	-0.048773065
163	0xbe55d4be	-0.20881936
164	0x3e79a86b	0.24380653
165	0xbe3db3d0	-0.18525624
166	0x3e48a9e1	0.19596054
167	0x3d86e82f	0.06587254
168	0xbe0b730c	-0.13618106
169	0xbc8985a2	-0.016787354
170	0xbe942314	-0.28933012
171	0xbdb6c2a4	-0.089238435
172	0x3db541c1	0.08850432
173	0xbe0e39ef	-0.13889287
174	0xbe71e0b8	-0.2362088
175	0x3d87ebe9	0.06636793
176	0xbe0bb281	-0.13642313
177	0x3e8f1c99	0.27951506
178	0xbe8b5122	-0.27210337
179	0x3e5f06aa	0.21779886
180	0xbe642989	-0.2228147
181	0xbd77e865	-0.060524363
182	0xbe020d32	-0.12700346
183	0xbe5342c5	-0.2063094
184	0xbd104fdd	-0.035232414
185	0x3e4ce809	0.2001039
186	0x3dbf772e	0.093489036
187	0xbdedfe26	-0.116207406
188	0x3e6a9067	0.22906648
189	0xbe1fa057	-0.15588509
190	0x3d26d507	0.040730502
191	0x3d10deed	0.03536885
192	0xbcaa959d	-0.020823294
193	0x3e02f7f8	0.12789905
194	0xbe1100a2	-0.14160398
195	0xbdbb31a5	-0.09140328
196	0x3c5ba266	0.013405418
197	0xbe541f8c	-0.20715159
198	0xbe3d7693	-0.18502264
199	0xbe431e4b	-0.19054525
200	0xbdf01370	-0.117224574
201	0x3e792e7e	0.24334142
202	0x3d9121d8	0.07086533
203	0x3d2bda9e	0.041956536
204	0x3e68e979	0.22745313
205	0xbeb02fb6	-0.344114
206	0x3e2e8783	0.17043881
207	0xbcc5c7e5	-0.024143169
208	0x3d3e1516	0.046406828
209	0x3dd8e1e9	0.10589964
210	0xbe2c1849	-0.16806139
211	0xbdc01fb1	-0.09381045
212	0xbcc6647c	-0.024217837
213	0x3ec4252e	0.38309616
214	0xbc9dba09	-0.019253748
215	0xbe32aae8	-0.17448008
216	0xbe91bae2	-0.28462893
217	0x3e1d3014	0.15350372
218	0xbe57be86	-0.21068773
219	0x3e56629b	0.20936053
220	0xbe3c5a01	-0.18393709
221	0x3f3acd61	0.72969633
222	0xbe4dc79e	-0.20095679
223	0xbdfc88c3	-0.12330773
224	0xbdb98021	-0.09057642
225	0xbe7aaeaf	-0.24480699
226	0xbe44f69b	-0.19234698
227	0x3e83760c	0.25676
228	0xbe844a5c	-0.25837982
229	0x3e6cdeda	0.23131886
230	0x3e3e61b1	0.18591954
231	0x3e0db6f1	0.13839318
232	0xbdfc00c9	-0.12304837
233	0xbde6626e	-0.11249243
234	0x3dee28c3	0.116288684
235	0x3db37657	0.08762806
236	0xbd30f5c4	-0.04320313
237	0xbe402aed	-0.18766375
238	0x3d2185c5	0.039434213
239	0xbdd2f6f2	-0.10301007
240	0x3d310b7a	0.043223836
241	0x3d2b9890	0.04189354
242	0xbe1e191f	-0.1543927
243	0x3d162ccf	0.036663827
244	0xbe52c121	-0.20581485
245	0x3d767f00	0.06017971
246	0x3d898e72	0.067166224
247	0xbdaede92	-0.08538546
248	0x3e7c97d6	0.24667296
249	0xbdcf54df	-0.1012361
250	0x3cb33e6e	0.021880355
251	0x3d185f0b	0.037200015
252	0xbe0045fd	-0.12526698
253	0xbef4f36a	-0.4784196
254	0xbcd148ac	-0.025547348
255	0xbbe392d0	-0.0069449916

linear2.weight f4 [3, 256]
0	0xbf114fe8	-0.5676255
1	0x3e69c55f	0.22829197
2	0x3ae25741	0.0017268435
3	0x3d2270ad	0.039658237
4	0xbead64b6	-0.338659
5	0xbe3f6a8e	-0.18692991
6	0x3e48b1e9	0.19599117
7	0xbd395811	-0.045250002
8	0xbd55f7c4	-0.05223824
9	0xbd34b62a	-0.044119038
10	0x3e0ae73b	0.1356477
11	0xbc04b742	-0.008100333
12	0xbd0825d6	-0.03323921
13	0xbd7de648	-0.06198719
14	0xbf010485	-0.5039752
15	0xbe03fe9b	-0.12890093
16	0xbed84b8d	-0.4224514
17	0xbe2ce037	-0.16882406
18	0xbd6c823f	-0.0577414
19	0x3ea659d6	0.32490414
20	0x3f0baee5	0.5456374
21	0xbf14a3a4	-0.58062196
22	0x3e3de5da	0.18544713
23	0xbe1eb4aa	-0.15498605
24	0x3e8f78de	0.28021902
25	0xbad56d37	-0.0016283159
26	0x3e0e0b2b	0.13871448
27	0x3c90fe21	0.017699303
28	0xbda64b48	-0.081198275
29	0x3dd0aedf	0.10189604
30	0xbf0e9c63	-0.5570738
31	0xbec093aa	-0.3761266
32	0xbd380b0f	-0.04493242
33	0x3bad1a08	0.005282644
34	0xbeacc7da	-0.33746225
35	0xbdba29f6	-0.09090035
36	0xbd54d532	-0.05196113
37	0x3e4fa122	0.20276311
38	0xbebf19af	-0.37324283
39	0x3ccda102	0.025101189
40	0xbd5b34aa	-0.05351702
41	0xbd1ad081	-0.0377965
42	0xbd5968f9	-0.053078625
43	0xbe81ae63	-0.2532836
44	0xbeab2cc9	-0.33432606
45	0x3dced6c4	0.10099557
46	0xbcee4878	-0.02908729
47	0xbe412fa6	-0.18865833
48	0xbe898142	-0.26856428
49	0x3d912db0	0.07088792
50	0xbe68dccc	-0.22740477
51	0x3c6428f3	0.013925779
52	0x3e9ccf1f	0.3062677
53	0xbe773a92	-0.24143437
54	0x3e9b7db1	0.30369332
55	0xbcc5afcf	-0.024131684
56	0x3eaac293	0.33351573
57	0xbda43e4d	-0.080196954
58	0xbee96326	-0.45583457
59	0x3ec37eec	0.3818277
60	0x3e9fcd37	0.31211254
61	0xbddfb9c2	-0.10924102
62	0xbd069e6e	-0.032865934
63	0x3eaed9de	0.34150594
64	0xbcddd533	-0.0270792
65	0x3d9d39b3	0.07677021
66	0x3df39e64	0.11895445
67	0xbcd40864	-0.025882907
68	0x3e3f3790	0.18673539
69	0xbd2c5be3	-0.042079818
70	0x3d853b32	0.06505431
71	0x3eb4e94f	0.3533425
72	0xbbf8ce5b	-0.007592959
73	0xbd32b3d8	-0.043628544
74	0xbe7eb00c	-0.24871844
75	0x3c352fda	0.011058772
76	0x3d0bf823	0.03417219
77	0xbbed0f49	-0.007234488
78	0x3e3c4d60	0.18388891
79	0xbcc2f4ec	-0.023798428
80	0xbe936e90	-0.2879529
81	0x3e73d597	0.23811947
82	0x3c43ed09	0.011958369
83	0xbeb04448	-0.34427094
84	0x3dcfafb6	0.10140936
85	0xbf1176b9	-0.5682178
86	0x3e3a2c8a	0.18181053
87	0xbd184370	-0.03717369
88	0xbe8e6c98	-0.27817225
89	0xbd4dc376	-0.050235234
90	0xbda7ad07	-0.08187299
91	0xbe1d721c	-0.1537556
92	0xbeb9f0f0	-0.36316633
93	0x3cb4189b	0.021984389
94	0xbcfe676d	-0.031055177
95	0xbeae86ae	-0.34087127
96	0x3ba06438	0.0048947595
97	0xbd854461	-0.06507183
98	0xbccb2833	-0.024799442
99	0x3e818d9d	0.25303355
100	0x3ea74399	0.3266876
101	0x3e89dd4d	0.26926652
102	0xbec7f5ed	-0.39054814
103	0xbd82b070	-0.06381309
104	0x3e89f242	0.2694264
105	0xbf065e98	-0.5248809
106	0xbe4c7db8	-0.19969833
107	0xbe2091fd	-0.1568069
108	0x3e9b4f78	0.30334067
109	0xbe56f90f	-0.20993446
110	0x3e429b2d	0.19004507
111	0xbd046ed8	-0.03233227
112	0x3ea23a21	0.31684974
113	0x3ec6aef3	0.3880535
114	0x3ee15b10	0.44014788
115	0xbe3649f8	-0.17801654
116	0xbd1a5fe8	-0.03768912
117	0xbd4cdc4f	-0.05001479
118	0x3e897542	0.26847273
119	0xbe5903c9	-0.2119285
120	0x3efbb700	0.49163055
121	0xbb5d8831	-0.00338031
122	0xbdf586e7	-0.11988621
123	0xbe6e4974	-0.23270208
124	0xbf241328	-0.6409173
125	0xbe880284	-0.2656442
126	0xbf0d4b61	-0.55193144
127	0xbabe5cba	-0.0014523484
128	0x3edbd545	0.4293615
129	0xbe0adf5a	-0.13561764
130	0x3d84cf3b	0.064848386
131	0x3c74d720	0.014943868
132	0xbd002665	-0.031286616
133	0xbe864e9c	-0.2623185
134	0x3ea5c445	0.32376304
135	0xbc6d7748	-0.014493771
136	0x3e837b1d	0.25679865
137	0x3c0d342f	0.008618399
138	0x3ec1ddda	0.37864572
139	0xbeb03e63	-0.34422597
140	0x3e7b8400	0.24562073
141	0x3c7050c7	0.014667696
142	0xbef39ef8	-0.4758222
143	0xbcbe07a3	-0.023197
144	0xbe97056e	-0.2949633
145	0x3e950071	0.291019
146	0xbe80f443	-0.25186357
147	0x3e4d263a	0.20034114
148	0xbf030e0f	-0.51193327
149	0xbd241317	-0.040057268
150	0xbca98ea5	-0.020697901
151	0xbf2cf1d2	-0.6755649
152	0x3d6c6915	0.0577174
153	0x3d17ab15	0.03702839
154	0x3e5396f7	0.20663057
155	0xbe21d1dc	-0.15802711
156	0x3b20d505	0.0024541032
157	0x3e605225	0.21906336
158	0x3cc1cbb8	0.023656711
159	0x3efc3ade	0.49263662
160	0x3ebe580d	0.37176552
161	0x3e3c15a9	0.18367638
162	0x3ebbd126	0.36683005
163	0xbebe17be	-0.3712749
164	0xbed9c528	-0.4253323
165	0xbe61ee4a	-0.22063556
166	0xbd77fed9	-0.060545776
167	0x3e3a1b14	0.18174392
168	0xbe804124	-0.25049698
169	0xbe249353	-0.16071825
170	0x3e055c64	0.13023525
171	0x3cee103c	0.029060476
172	0xbed5ec2b	-0.41781744
173	0xbe58b660	-0.2116332
174	0x3c410817	0.011781714
175	0x3ecb7b89	0.39742687
176	0x3e8c387c	0.27386844
177	0x3ed0033d	0.4062747
178	0x3d6b7488	0.05748418
179	0x3e81a8ac	0.25324
180	0x3adb8562	0.0016748125
181	0xbea71471	-0.32632783
182	0x3e8f617b	0.2800406
183	0xbc813826	-0.015773844
184	0x3eb45504	0.35221112
185	0x3dc060da	0.09393473
186	0xbdb90fe9	-0.09036238
187	0x3d54e5b6	0.051976882
188	0x3ea2f855	0.31830087
189	0xbe7076a1	-0.23482753
190	0x3e94f599	0.29093626
191	0x3bf38b3e	0.0074323704
192	0x3ea2a3fc	0.31765735
193	0x3b918e40	0.0044420063
194	0xbe04b865	-0.12960966
195	0xbe44fc81	-0.19236948
196	0xbf286cbf	-0.65790933
197	0xbcf2d723	-0.0296436
198	0x3d15045d	0.036381114
199	0xbbc3bde1	-0.005973563
200	0xbe239887	-0.15976153
201	0x3ec3dd85	0.38254943
202	0xbf463898	-0.77430105
203	0x3db3734d	0.08762226
204	0x3e9ce485	0.30643097
205	0x3ca8cdd1	0.020605953
206	0xbed9317d	-0.4242057
207	0xbe1fb301	-0.15595628
208	0xbe1776a2	-0.14791349
209	0xbd75880e	-0.059944205
210	0x3e42157e	0.18953511
211	0xbe2dc314	-0.16968948
212	0xbcae0fa5	-0.021247694
213	0x3e8b7e79	0.27244928
214	0xbeba5946	-0.36396235
215	0x3d593038	0.0530245
216	0x3ea1a8c9	0.31574085
217	0x3e823916	0.25434178
218	0x3d113aac	0.035456344
219	0x3aa86164	0.0012846407
220	0x3e98be3c	0.29832637
221	0x3f11ce4f	0.56955427
222	0xbe889c71	-0.26681855
223	0xbdf5a36e	-0.11994062
224	0xbea80e35	-0.3282334
225	0x3b359750	0.0027708597
226	0xbe8186ba	-0.252981
227	0x3ec84034	0.39111483
228	0xbe56be20	-0.20970964
229	0x3e7636ad	0.24044295
230	0xbe84695f	-0.25861642
231	0xbca9aaa6	-0.020711254
232	0xbe471411	-0.19441248
233	0xbe12e65f	-0.14345692
234	0xbdc6ef17	-0.097135715
235	0xb9c013c5	-0.00036635823
236	0xbe9c0b23	-0.30477247
237	0xbea7eeb6	-0.3279931
238	0xbde35b5c	-0.1110141
239	0x3da2c5e0	0.07947898
240	0xbeb3eb78	-0.35140586
241	0xbe21a25e	-0.15784594
242	0x3e7b3eb0	0.24535632
243	0xbd173049	-0.036911283
244	0x3cc3af08	0.023887172
245	0x3d7568da	0.059914447
246	0xbe2c11eb	-0.1680371
247	0xbf04e85d	-0.5191706
248	0x3e473851	0.19455077
249	0x3ebfff36	0.37499398
250	0x3c89d76d	0.016826356
251	0xbcdf83eb	-0.027284583
252	0xbd6c60ea	-0.057709612
253	0xbe06c310	-0.13160348
254	0x3e837a33	0.25679168
255	0xbe01c38e	-0.12672254

linear2.bias f4 [3]
0	0x3e5b3ff9	0.21411122
1	0xbca84caa	-0.020544369
2	0x3bb989d5	0.005662183
